discriminator_model.pth (torch, 1367 bytes, 1 tensors)

fc.weight f4 [1, 54]
0	0xbd0c38fc	-0.034234032
1	0xbe12594c	-0.14291877
2	0xbd8fc7fb	-0.07020565
3	0xbd7244e8	-0.059147745
4	0xbb586040	-0.0033016354
5	0xbe9d0a1f	-0.30671784
6	0xbebd399c	-0.36958015
7	0xbe27f3de	-0.16401622
8	0xbdea8c6c	-0.114525646
9	0xbe06b566	-0.13155136
10	0x3bc4a53d	0.0060011433
11	0x3cc7ec9e	0.02440482
12	0xbeba4678	-0.36381888
13	0x3db6b6e2	0.08921601
14	0xbd416e2d	-0.047224212
15	0xbe314732	-0.17312315
16	0x3c92a8a0	0.017902672
17	0xbe3bab16	-0.18326983
18	0xbe72518e	-0.23663923
19	0xbd0007d5	-0.03125747
20	0xbdb15f3c	-0.08660743
21	0xbe3e1f52	-0.18566635
22	0x3d79934f	0.0609315
23	0xbe8ff689	-0.2811778
24	0xbe8ee9ab	-0.2791265
25	0xbe48223c	-0.1954431
26	0x3d8b33e1	0.067970045
27	0xbe099e59	-0.13439311
28	0xbda491df	-0.08035635
29	0xbe6c50e1	-0.23077728
30	0xbe23e39b	-0.16004793
31	0xbc9b1c63	-0.018934434
32	0x3d8d94d1	0.0691315
33	0xbe316a04	-0.17325598
34	0x3cd0bdb3	0.02548108
35	0xbe24a142	-0.1607714
36	0xbd98fbae	-0.07469879
37	0xbe16d70e	-0.14730474
38	0x3d43c6cf	0.04779702
39	0xbe46094e	-0.19339487
40	0x3a8cea5d	0.0010750998
41	0x3ad95ea1	0.0016583988
42	0xbe6882c7	-0.22706138
43	0xbe8c3f0b	-0.27391848
44	0x3d1d8639	0.038458083
45	0x3d72d70b	0.059287112
46	0xbe2b5288	-0.16730702
47	0xbd0f6206	-0.03500559
48	0xbe323c06	-0.1740571
49	0xbe117eb0	-0.14208484
50	0xbe438fc2	-0.19097808
51	0xbe3edf2d	-0.18639822
52	0xbe8af415	-0.27139345
53	0xbe1c8a1a	-0.15287057
