generator_model.pth (torch, 12999 bytes, 2 tensors)

fc.weight f4 [54, 54]
00000000: 5675 b539 e4e5 6fb9 e4f9 8438 c77e 8db9
00000010: daff 153a 145b 8638 186d 093a dc18 0939
00000020: d576 1fb8 271f dfb9 2bc4 84b9 184f 19b8
00000030: ce97 81b8 9615 9539 ae2c 6b39 62c1 c5b9
00000040: 3766 27b8 6ec5 9e39 8d59 a4b9 2773 6fb9
00000050: eab2 b2b9 c2a4 62b8 4a29 9438 8fa6 a4b9
00000060: e0e3 b3b8 8b55 4a38 0d38 8939 489e b3b9
00000070: 6a49 a539 fb5b 68b9 ab49 9038 38b6 fbb7
00000080: fa08 f8b6 8677 1339 e8f9 5eb9 a87a d1b9
00000090: 8e14 2c39 9a0e 87b8 a799 ae39 1216 ebb9
000000a0: fa35 20ba d0a2 dbb9 6843 d539 0ee1 deb9
000000b0: d6ab 1638 a6ef a0b9 7a23 9339 7498 fab9
000000c0: 0864 c7b8 9a67 b5b8 5006 c1b5 e2f2 c338
000000d0: 5987 dab8 f01a 6db8 74c9 4eb8 b618 bfb9
000000e0: acfb 6038 26b5 393a f7a5 0139 f6be dab7
000000f0: 7700 8f39 c753 da39 d939 6cb9 d2fd bcb9
00000100: 90ab 1bb9 6cea aeb9 eaa7 d439 8c7e b4b7
00000110: f55a 8c37 d0bc 82b9 428a 7539 a016 cb39
00000120: bd98 f138 129e 8a38 46dc adb8 684f 2fb9
00000130: 96e1 6a39 ef37 cb39 5e3f 8439 ed3a 2db9
00000140: d3f8 d3b8 4036 cdb9 d080 0b39 e847 0339
00000150: 5ac7 79b8 01d3 f5b9 d9b7 1c39 23d7 a238
00000160: f098 3f38 26d0 5139 c379 c538 1829 dbb8
00000170: 0ec5 7ab7 e4d9 c837 700b 2236 5151 d8b9
00000180: 89f2 2ab9 ccd1 2438 160d f8b7 1427 b639
00000190: 5c34 bbb8 d8da ac36 2a2c 36b8 a6bd 3a38
000001a0: afae 3938 4dd9 bfb9 0c9c 8eb8 8477 0939
000001b0: 6326 2fba e299 8338 6c22 beb7 d1cf 51ba
000001c0: f9f1 7bb9 c958 81b8 4e55 a039 eaa7 41ba
000001d0: 7a1b 9c39 99de 83b9 0887 c7b9 ad1f 87ba
000001e0: 3349 3ab9 4700 1a3a cd26 5db9 b26a c539
000001f0: 6060 c9b9 5e72 e6b9 91e5 54b9 d11d 1eb9
00000200: b56c a939 6447 77b9 bf97 3cba 5bb6 1c39
00000210: 066d 9e39 df43 8a3a 22c0 c739 bc89 e539
00000220: de14 1eb9 e2ae abb7 0205 64ba 7486 673a
00000230: 3085 7eb9 0407 0039 da22 6b39 f009 07b7
00000240: 8ba3 ee38 d88e ceb9 29e9 2e39 fb92 8639
00000250: 831d b039 1df2 5d3a 34ae 3a3a 2390 6aba
00000260: 9da3 fc38 c6fb 7fba 6af8 08b9 afc5 50ba
00000270: 97c9 90b9 7804 58b9 7c70 d439 8e38 1e3a
00000280: a84f a6ba 2f96 3bba 36c2 053a ef55 45b9
00000290: a4e7 5a39 2c0f 0c3a dabd df39 659c e538
000002a0: cd22 23ba b86b 2a3a 798c c1b9 857a 8bb9
000002b0: fe41 4639 5c32 ce38 ad3a a139 c8ec ffb9
000002c0: 7c5d 40b9 5b08 c8b9 510f 3838 e561 173a
000002d0: c390 5539 0d1c 2839 4daa 1c39 7407 8239
000002e0: f7e6 4a3a 93f3 7839 7f2d 95b9 00ca e5b9
000002f0: 7ec0 c5b9 a3dd d7b9 09af 3939 deda c2b8
00000300: 70ec 343a 79aa 70ba 7c33 7c38 f08a a938
00000310: 66c6 dc38 7c26 3a39 cc24 02b9 825c af39
00000320: 1853 15b9 8aaa fc39 f218 2237 6403 3bba
00000330: f024 28ba e2d8 783a 63e5 ec38 084c f239
00000340: 1f2d e038 9ad8 b638 b21b 063a 0eb4 25b8
00000350: 3327 9c39 bb1b 46ba e6eb 3d3a fca2 163a
00000360: 069d 47bc 859d 81bc cbc9 c13c 2ee6 81bd
00000370: c313 5dbd 9c11 0bbc 6928 3f3c d349 b03c
00000380: 45fb 12bc 74db 2dbd 1b5a a33b c244 b23c
00000390: c2de f53c 7cf8 0fbc 77c2 3fbd a08e 42bd
000003a0: 0b00 823b a0d4 993c b6ba 4e3b e07b e83c
000003b0: a04e 72bd 0c8f 3e3d 79d2 40bd b280 f7bb
000003c0: 7af5 073d c567 cbbc a46a 58bc ce1c 523c
000003d0: 6a34 3c3d 07ae d6bc 0451 78bc df42 ae3c
000003e0: d13b d9bc c4a6 b6bc eeb6 973c 0858 1e3d
000003f0: ad85 a23b afee b3bb e245 8e3c a224 dabc
0.00034610432 -0.00022878457 6.340796e-05 -0.00026988072 0.0005722024 6.4065825e-05 0.00052423915 0.00013074599
-3.8019225e-05 -0.00042557085 -0.00025323158 -3.6551704e-05 -6.179475e-05 0.00028435577 0.00022427991 -0.0003771885
-3.9911098e-05 0.00030283205 -0.00031347238 -0.00022835714 -0.00034084107 -5.403604e-05 7.0648806e-05 -0.00031404613
-8.57783e-05 4.824022e-05 0.00026172437 -0.0003425947 0.0003152595 -0.0002215951 6.880177e-05 -3.0006384e-05
-7.392021e-06 0.00014063538 -0.00021264667 -0.00039954972 0.00016410855 -6.4400214e-05 0.00033302346 -0.00044839137
-0.0006111559 -0.0004189224 0.00040676747 -0.00042510818 3.592282e-05 -0.0003069613 0.00028064457 -0.00047797302
-9.507692e-05 -8.65005e-05 -1.4381458e-06 9.343565e-05 -0.000104202605 -5.653029e-05 -4.9301845e-05 -0.0003644877
5.364015e-05 0.0007084183 0.00012364225 -2.6076548e-05 0.00027275432 0.0004164262 -0.00022528264 -0.00036047265
-0.00014845864 -0.00033362524 0.00040560897 -2.15166e-05 1.6731656e-05 -0.00024936209 0.00023416526 0.00038736034
0.00011520225 6.609796e-05 -8.290312e-05 -0.00016718882 0.00022400016 0.0003876085 0.00025224214 -0.00016520517
-0.00010107611 -0.00039141066 0.0001330406 0.0001251992 -5.9551887e-05 -0.00046887252 0.00014945808 7.764834e-05
4.5680383e-05 0.00020009335 9.416372e-05 -0.00010450388 -1.4947042e-05 2.3943321e-05 2.4146539e-06 -0.00041259316
-0.00016302815 3.9296036e-05 -2.9569997e-05 0.0003474286 -8.9266076e-05 5.151476e-06 -4.3433312e-05 4.452248e-05
4.4270124e-05 -0.0003659226 -6.800154e-05 0.00013109861 -0.000668144 6.27523e-05 -2.2665794e-05 -0.00080036843
-0.00024027367 -6.167737e-05 0.00030581135 -0.0007387387 0.0002977511 -0.00025152115 -0.00038056844 -0.0010309123
-0.00017765611 0.0005874675 -0.00021090657 0.00037654262 -0.00038409512 -0.0004395423 -0.00020303416 -0.00015079162
0.00032315185 -0.0002358235 -0.0007194243 0.00014945252 0.00030217337 0.0010548792 0.00038099388 0.00043780904
-0.00015075828 -2.0466225e-05 -0.0008698256 0.0008831986 -0.00024272944 0.00012209645 0.0002242433 -8.048941e-06
0.000113791866 -0.0003939781 0.00016680792 0.0002566798 0.00033591324 0.00084665586 0.0007121295 -0.00089478696
0.00012046772 -0.0009764995 -0.00013062512 -0.00079640275 -0.00027616016 -0.0002060103 0.00040519598 0.0006035649
-0.0012688534 -0.0007155863 0.0005102487 -0.00018819397 0.00020876393 0.0005342837 0.00042675325 0.00010948702
-0.0006223142 0.00065010367 -0.0003691649 -0.0002660343 0.00018907335 9.8322256e-05 0.0003075203 -0.00048813806
-0.00018345373 -0.00038153198 4.3883283e-05 0.00057747803 0.00020367191 0.00016032178 0.00014940761 0.00024801085
0.0007740105 0.00023741862 -0.00028453392 -0.00043828785 -0.00037718186 -0.00041173128 0.0001770818 -9.291408e-05
0.0006901687 -0.0009180676 6.012943e-05 8.084427e-05 0.00010527372 0.00017752679 -0.00012411474 0.00033447525
-0.00014240702 0.00048192247 9.6617605e-06 -0.0007133989 -0.00064141955 0.0009492767 0.000112960835 0.00046214485
0.00010689557 8.7187815e-05 0.0005115821 -3.9506755e-05 0.00029783844 -0.0007557233 0.00072449294 0.00057463325
-0.012183433 -0.015822181 0.023655793 -0.063427314 -0.053973924 -0.008488085 0.011667349 0.021519577
-0.00897104 -0.042445615 0.0049851066 0.021761302 0.030013446 -0.008787271 -0.046816316 -0.0474993
0.0039672903 0.018778145 0.0031544394 0.02837938 -0.059157014 0.04652314 -0.047075722 -0.0075531835
0.03319309 -0.024829755 -0.013209019 0.01282425 0.045948423 -0.02620603 -0.015156034 0.021272121
-0.02651778 -0.022296317 0.018519845 0.038658172 0.004959783 -0.0054911 0.017367307 -0.026628796

fc.bias f4 [54]
00000000: c164 193f a987 1a3f c007 5a3b 02b5 f13c
00000010: ccea e440 7219 083f 7182 cf3e 6a3a 1b3f
00000020: 9c69 7e3b b15d b23d 494a e240 7d65 0b3f
00000030: dbaf e83e 51d5 1c3f ef3e beba a412 1f3e
00000040: 734d e340 d672 863f 49f9 ef3e 04f7 1b3f
00000050: 5381 983b de6a d83e 89a9 e640 ae72 863f
00000060: 937d 163f 44c2 1b3f 8bb4 35bc 824d 183d
00000070: 319e de40 93b0 1b3f fd37 d23e 49e9 1b3f
00000080: 5912 16bc ab7f a03c b174 df40 b5eb 1d3f
00000090: f5b2 fb3e 11ca 1b3f 14af da3b 5070 5a3e
000000a0: 9a1f e540 da8b 863f 4e76 1a3f 15a1 023f
000000b0: 1ac3 903b de1d 1c3a 9e69 383e f808 ae3f
000000c0: de4f c63e 3f98 023f 8fd2 e33b 3362 213a
000000d0: eed8 373e d860 ab3f
0.59919363 0.6036325 0.003326878 0.029505257 7.1536617 0.53163826 0.40529206 0.6063601
0.0038820272 0.087092765 7.071568 0.54451734 0.45446667 0.61262995 -0.0014514605 0.15534455
7.1032043 1.0503795 0.46869877 0.6092379 0.0046540885 0.42269033 7.208195 1.0503747
0.5878536 0.608433 -0.011090408 0.037183292 6.9568105 0.60816306 0.4105834 0.6090284
-0.009159648 0.019592127 6.9829946 0.61687785 0.4915997 0.60855204 0.006673703 0.21331906
7.1601076 1.0511429 0.6033677 0.5102704 0.004417789 0.00059553783 0.1800904 1.3596487
0.3873281 0.5101356 0.006952591 0.00061562954 0.17953846 1.3388929
